res/model.onnx (onnx, 10514 bytes, 8 tensors)

hidden_0.bias f4 [32]
00000000: e243 253f 20bf 3c3e 2920 62be 9740 5dbe
00000010: 3309 a6bc 7fb6 80be d2e0 94bd e331 783e
00000020: 2d5c 0dbc 558b d4bd 33f1 96be fa42 45ba
00000030: 5703 f03c 46f7 acbe fc57 f0be f357 35be
00000040: f46a abbe a83c ae3b a6f7 a63d 2ee7 babe
00000050: e959 ae3c 0100 a23e dbda b03d b1ee 20be
00000060: 23ce a33e 9e06 8a3e 728b 863d edbc ecbd
00000070: da95 a0be f60a 8cbd 0818 efbd 2d98 25be
0.64556706 0.18432283 -0.2208258 -0.2160667 -0.020268058 -0.25139233 -0.072694436 0.2423778
-0.008627933 -0.10378138 -0.29480895 -0.0007524934 0.029298468 -0.33782405 -0.46942127 -0.17709331
-0.33480036 0.0053172894 0.08152704 -0.365045 0.021283107 0.31640628 0.08635493 -0.15716054
0.31993207 0.26958174 0.06569566 -0.11559472 -0.31364328 -0.06838028 -0.116745055 -0.16171332

hidden_0.weight f4 [32, 5]
00000000: b300 823e a208 a23e f534 04bd 7911 d23e
00000010: 8d8c 00bd 644b 9a3e d2a8 9cbe 9889 483e
00000020: db50 083f c894 c7be cb4a 993e 7da0 9c3e
00000030: 0e1f c13e 8a88 0cbe f1c5 f23e 17e7 cebe
00000040: 3210 093f 24bd 8c3d ea5d b1be 3d30 483e
00000050: 8124 50bd 8a8c 46bd cc2b 593d 11f6 983e
00000060: 01e0 27bf 51e8 473e 3a2a 99be 84cb 2fbe
00000070: 0834 b93e 71e0 f2be ea64 323e 03ce 98be
00000080: 2f3d 0c3f bcef 943e 7165 973c fa90 31bd
00000090: 797e 143c 7c93 b93e 76a2 403e 534d bcbe
000000a0: 12c1 193e 9c2b c3bd 102b 6c3e f26f f73e
000000b0: ddc2 febd a160 54bf 3451 8e3e 7d74 eb3d
000000c0: 8b90 5d3d c807 1cbe 5910 f0be 76bc 57be
000000d0: db1f 9bbe 5896 183f 048e 503d e608 8b3e
000000e0: 39d6 c03e 41ac 963c 2d71 ad3e c5e5 8cbe
000000f0: 46f1 c43c b8f2 1cbf df4d 023d e5cc 9d3d
00000100: 8f8d aa3d 4751 313e 81d9 5d3e b7ee 2dbe
00000110: 49fb e4be 5a50 b4be 055c d53e fdf5 e83e
00000120: eb37 ea3e 6499 2cbf a3ed b5be 9a5f 3dbf
00000130: 4ad4 80be 5d55 1b3e 3139 b73e 42e3 093d
00000140: 3cf2 c0be 848e ecbe 4bdb c63d 9c3b 0dbf
00000150: 2d95 bdbc 7bfa b8bc b162 a93d ddf7 f7be
00000160: 3679 8cbe 43d2 253e 93de 613c 5218 28be
00000170: 0281 6b3e a238 123f 723c 1bbf b8f6 413c
00000180: da09 113f f901 5fbe 2f13 763e 454f b9be
00000190: 737a efbd e774 0d3e 43f8 e7bb cfa9 52bf
000001a0: 596c 653d fb8f 72be 5a70 a0bd 70ad 16be
000001b0: b974 9cbe 4b12 9abe 30a1 cf3e 4b5b dd3d
000001c0: 59f2 e63d f6fa 2fbf a2e4 e9be 56bd 0fbc
000001d0: cea7 8e3d acb0 e0be ed8c ee3d 3e77 8abe
000001e0: e0c7 453d 2491 69bd c318 b13c 95cc b5be
000001f0: 57d6 a4be b445 b23d 9525 d4bd b72e 76be
00000200: e0a9 fb3e 7211 babd 4ede 0e3f b29a 7abd
00000210: c979 febe 793a e43e 870d 13be c159 fb3d
00000220: 8322 0bbf 1f17 d6be 24b2 ba3e fe0e 043b
00000230: 2103 383e 8822 03bf 217d 8b3e bb7c f0be
00000240: 5363 9b3b de4c 52bd 1e54 ba3d db08 013f
00000250: 3967 8e3d c167 50be 9637 b53e c947 efbe
00000260: 79e8 61bd 343b a9be c2c8 ba3e ddea 6fbf
00000270: 41a3 243e 39f5 313e d483 56bd f5ed 7abe
0.25391158 0.3164721 -0.032277066 0.41028956 -0.03138404 0.30135643 -0.3059755 0.19583738
0.53248376 -0.389807 0.29939875 0.30591193 0.37719005 -0.1372396 0.47416642 -0.40410683
0.5354034 0.06872013 -0.34641963 0.19549651 -0.050816063 -0.048473872 0.053020284 0.29875234
-0.6557618 0.19522215 -0.2991503 -0.17167479 0.3617251 -0.4743686 0.17421308 -0.29844674
0.5478086 0.29089153 0.018480988 -0.04335115 0.009063357 0.36245334 0.18811974 -0.36777744
0.15015057 -0.09529802 0.23063302 0.48327595 -0.12439511 -0.82959944 0.27796328 0.11496828
0.054092925 -0.15237343 -0.46887472 -0.21067986 -0.3029774 0.59604406 0.050916687 0.27155226
0.3766344 0.018392684 0.3387541 -0.2751905 0.02404083 -0.6130786 0.031812545 0.07705096
0.083277814 0.17316161 0.21665002 -0.16985594 -0.44722965 -0.35217553 0.41671768 0.45500174
0.45745787 -0.67421556 -0.35532865 -0.73974 -0.25161964 0.15169282 0.3578582 0.033663996
-0.3768481 -0.4620248 0.097097956 -0.5516908 -0.023142422 -0.022580376 0.08270777 -0.48431292
-0.27436227 0.1619349 0.013785976 -0.16415527 0.22998431 0.57117665 -0.6063911 0.0118386075
0.5665566 -0.21778096 0.24030755 -0.3619329 -0.11693277 0.13814126 -0.0070791556 -0.8229036
0.05601153 -0.23687737 -0.07833929 -0.14714599 -0.30557802 -0.3009208 0.40552664 0.108084284
0.11276693 -0.6874231 -0.45682245 -0.008773169 0.069656 -0.4388479 0.11647973 -0.270441
0.04828632 -0.057023183 0.021618253 -0.35507646 -0.32194778 0.08704701 -0.10358731 -0.24041258
0.49153042 -0.09085359 0.5580796 -0.061182685 -0.4970229 0.4457586 -0.14360629 0.122729786
-0.54349536 -0.41814515 0.36464036 0.0020150538 0.17969944 -0.51224566 0.27243903 -0.46970162
0.004742065 -0.051342838 0.09098075 0.5040414 0.06953282 -0.20352079 0.3539397 -0.46734455
-0.055153344 -0.3305298 0.3648129 -0.9371775 0.16077901 0.17378701 -0.052371815 -0.24504836

hidden_1.bias f4 [32]
00000000: b137 f93d 06e9 93bc 82ad e6bc e8ba 65bd
00000010: 889b 38be a19d 093e 71e3 b53d 146f d7bd
00000020: c5ee 793e e4c7 30be 3cc8 933e 0a32 fa3d
00000030: ae3b 243d 296b 473c 9890 293d 8d05 533e
00000040: 76ea 283d 0702 eebc 2246 6d3e cf0e 3cbe
00000050: b27a 93bb 5286 55bd e63a c4bd fa1f a73e
00000060: db88 f4bd aaac 963c c161 7a3d 1d1c 94bd
00000070: b5b8 163d d750 b2bb c73d 44bd 1010 5cbd
0.121688254 -0.01805545 -0.028158907 -0.05608645 -0.1802808 0.13439037 0.08881272 -0.10519233
0.2440749 -0.17263752 0.28863704 0.122165754 0.040095977 0.012171545 0.04139766 0.20607586
0.041239224 -0.029053701 0.23171285 -0.18365024 -0.0045007104 -0.05213005 -0.095815465 0.32641584
-0.119401656 0.01839288 0.06112838 -0.07231925 0.036797244 -0.0054417658 -0.047910478 -0.053726256

hidden_1.weight f4 [32, 32]
00000000: 3e0d 523e 1245 a13e 6c6f acbc 75eb dcbd
00000010: e72c fa3d a70a ae3d 6fd5 073d 0eee a33d
00000020: f887 64bd 348b 1a3e 7ce1 c13d 072f 4c3e
00000030: cbd0 f93d ef4f 94be 1349 a3be 4529 34bd
00000040: f115 9cbe c770 7dbd a597 8c3e 5c80 ccbc
00000050: d8b4 2bbf 8bdf 5ebe 907d 49be 7bc9 443e
00000060: 3272 64bd 4ff9 8fbc 560f 5e3e 5ddf 78bc
00000070: 9f49 75be 5292 603e f1dc 9c3e d036 883e
00000080: aacb 4cbe e45f d73d a17c db3d 4eb6 183d
00000090: a3a1 04be bba7 32be 4e4d 1fbe e025 df3d
000000a0: 5c78 803d 9242 033e 3d2d d23d dd0d b43c
000000b0: 3785 5cbc 92aa 09be f1fa 1ebe 0053 37be
000000c0: 8166 8a3d ac04 bcbd 031b 5bbd eb5a d0bd
000000d0: dc37 85bc ebb9 f1bd a449 06be 2c2f 703d
000000e0: bccd 5ebd 20d0 d23d 544a 68bd 6de7 fdbd
000000f0: 841b 23bd 94aa dabd 7e5d 60bd a857 3ebe
00000100: caf2 a83d 35dc d9bd 76fe 343e 8875 853e
00000110: 66ce 093e 12de 35be 9f32 8b3e cd00 39be
00000120: ca43 e83d 0bcb d13e e798 dbbd d343 063e
00000130: 8763 80bd 773d b83d 7834 1dbc d46f 28bd
00000140: e40e 4b3e 2981 893e 3849 2b3e 1b5a 2c3e
00000150: 404d 64be f4a5 0bbd f718 993d c76f cebb
00000160: f0b6 e4bd aec6 55be fd9c 3a3d d110 5ebe
00000170: c877 e0bd 945b 1cbb cb37 92bd 44f4 063f
00000180: 6444 463e f80c 40be 1260 c4be 357a 523d
00000190: 33f7 ad3c 4cae cfbc 7cd6 40be ecc8 e2be
000001a0: fe66 79be d24a 193e d320 87bd 9f2d aa3d
000001b0: 532b 043e d855 a43d 8062 0bbf 1219 1bbd
000001c0: 5a29 91be 4b06 2c3e ffca 3fbe 125b 573e
000001d0: efa6 19be 87ee 703d f6d5 433d 1069 3f3e
000001e0: 4e09 15be 942a 4f3e 954f ab3e 4d6e 0b3e
000001f0: 97eb e8bc a90b 09bf fbea 2a3e 43d0 8d3e
00000200: b43c 18be 3c37 15bd 306a d73d 96c5 843d
00000210: 1db3 e8bd 1d28 11be 7267 f7bd 5d0b 4dbe
00000220: c0a2 0bbe 4ba9 8ebd e654 f43d 6969 6a3b
00000230: 2eaf 09be 877a 2bbe 2c9b 7f3d 50a6 06be
00000240: c04e b2bc 9a04 713d 6c02 b9bd 7ba2 38bd
00000250: 688b 26bd fc4d 2bbd f06e ebbd 1d5e 21be
00000260: 0854 12be 9bdb c1bd 90f1 133e b8de aebd
00000270: 7d1e f3bd 847f 8b3c 2c90 473d 0359 913d
00000280: 340f 0a3e e0af 723e 6d1e 5abe 6410 d43d
00000290: cae7 d73e b11a 233e 47b5 d8bd 19d2 4d3e
000002a0: 08c4 a73d 2841 603d e266 81be 6e76 803d
000002b0: 62e5 a73e f793 9bbd d793 08be 7b1b 6f3d
000002c0: ce7f ee3c dd6e 26bd a7bb b33e c164 06bd
000002d0: 1754 6ebe 7c1f fabd a316 c0be f2a0 993c
000002e0: 71ef a3bd 05a6 023e 52ae 9a3d 5a19 88be
000002f0: 7c11 f63d 8e79 cfbd 8dde e43e 370e 803e
00000300: 885e 093c ee59 263e a081 78be 1b5f 233e
00000310: a563 473d 69c5 2e3c ad60 20bd fed7 40be
00000320: 2a3f 263e e762 8f3e 4102 6cbd 9222 013b
00000330: cdf9 f8bb b4c2 ea3a e8f4 0ebe fa82 7dbd
00000340: ee6b 7b3c 7c2d 663e cdb1 863c 7d3e 33bd
00000350: 1157 203d ab92 2cbe 0e8d 56be 3811 eebc
00000360: 4a8a e1bd b185 17bc ab18 49bd e84c d0bd
00000370: 116d 363e 8304 3e3d 3600 0b3f 9dce d83d
00000380: 4a22 92bd f088 16be 4cb8 29be 1da6 af3b
00000390: c048 b53b 3ea4 61bc 59b7 42be dc3d 96bc
000003a0: 2597 e13d a6dd c23e 9401 fe3c a441 4cbd
000003b0: f3e4 703c 533e 163e 40f0 93be 2a72 3b3e
000003c0: 66ad 593d 3b53 293e e943 a0be e066 973d
000003d0: 2f6d b0b9 5f14 673d 49e8 5fbd 07cf 143e
000003e0: 7d6a 96bc 3e4f 283e cfcf 7f3e 74e9 643e
000003f0: 81e0 0a3e 717a 863d ef42 c03d 5a4c 373f
0.20512864 0.3149801 -0.021049224 -0.10787097 0.12215596 0.084981255 0.03316253 0.0800439
-0.055793732 0.15092164 0.09466836 0.19939815 0.12198027 -0.28967234 -0.3189169 -0.04398467
-0.3048549 -0.06187513 0.27459446 -0.02496355 -0.6707282 -0.21764962 -0.19676805 0.19217484
-0.055772968 -0.017574934 0.21685538 -0.015189973 -0.23953865 0.21930817 0.30637315 0.2660432
-0.19999567 0.105163366 0.107171305 0.037283234 -0.12952285 -0.17446797 -0.15556833 0.10895896
0.06272957 0.12818363 0.10262535 0.021979267 -0.013459495 -0.13443974 -0.15525414 -0.17902756
0.06757832 -0.091805786 -0.053492557 -0.10173591 -0.016261987 -0.11803039 -0.13114029 0.058638737
-0.054395422 0.10293603 -0.05671151 -0.123976566 -0.039821163 -0.106770664 -0.05477666 -0.18588126
0.08249433 -0.10637704 0.17675194 0.26066232 0.13457641 -0.17760494 0.27187058 -0.18066712
0.11341055 0.40975222 -0.10722523 0.1311181 -0.06268983 0.089960985 -0.009595029 -0.041122273
0.19829899 0.26856354 0.1672715 0.16831248 -0.22295094 -0.034093812 0.07475465 -0.006299946
-0.11167705 -0.20876572 0.045559872 -0.21686102 -0.109603465 -0.0023858296 -0.07139548 0.5271647
0.19362026 -0.18754947 -0.38354546 0.051386077 0.021236038 -0.025351666 -0.1883182 -0.44293916
-0.24355695 0.14969948 -0.065980576 0.08309483 0.12907152 0.08024186 -0.54447174 -0.037865706
-0.2835186 0.16799276 -0.1872978 0.21030834 -0.15005086 0.058821227 0.04781147 0.18692422
-0.1455433 0.20231086 0.33459154 0.13616295 -0.02843265 -0.53533417 0.166912 0.27697954
-0.14866906 -0.03642963 0.105183005 0.06482999 -0.11362288 -0.14175458 -0.120802775 -0.20023866
-0.13636303 -0.06965884 0.119302556 0.0035768396 -0.13445732 -0.16745959 0.062403843 -0.1314938
-0.021766067 0.05884228 -0.09033665 -0.04507683 -0.040660292 -0.04182242 -0.11495769 -0.15758558
-0.14289868 -0.094657145 0.14447618 -0.08538574 -0.118710496 0.017028578 0.048721477 0.07097056
0.13482362 0.23699903 -0.21300669 0.10354689 0.4216903 0.1592815 -0.10581451 0.20099677
0.08191687 0.054749638 -0.25273806 0.06272589 0.32792193 -0.075965814 -0.13337646 0.058375817
0.029113676 -0.04063307 0.35104105 -0.03281093 -0.23274265 -0.122130364 -0.3751727 0.018753503
-0.08004654 0.12758644 0.0755278 -0.26581842 0.12015054 -0.101306066 0.44701043 0.25010845
0.008384354 0.16245243 -0.24268198 0.15954249 0.048679013 0.010667183 -0.039154697 -0.18832394
0.16235033 0.28005144 -0.057619337 0.0019704443 -0.007598138 0.0017910809 -0.13960612 -0.061892487
0.015345557 0.22478288 0.016442204 -0.043760765 0.039145533 -0.16852824 -0.20952246 -0.029060945
-0.11012705 -0.009248183 -0.04909579 -0.10170919 0.17815043 0.04639102 0.54297197 0.10586283
-0.07135446 -0.14700675 -0.1657421 0.0053603784 0.005532354 -0.013772069 -0.19015254 -0.018340044
0.11015157 0.3805973 0.031006612 -0.049867287 0.014703023 0.14672212 -0.28894234 0.18305269
0.05314388 0.16535656 -0.3130181 0.07392669 -0.00033650684 0.05641591 -0.054664884 0.145321
-0.018361324 0.16436478 0.24981616 0.2235468 0.13562204 0.065663226 0.093877666 0.7160088

hidden_2.bias f4 [32]
00000000: e966 223e 156b 813e 54da 903e 1ed6 46be
00000010: b033 3bbe 1108 0bbd c606 f03d b89d 64bd
00000020: f16a 11be 67db 2abd c671 44be 1f89 3f3e
00000030: eb70 66bd e10b 19be 49a8 f63b 369c cabd
00000040: f8af 98bd 9d93 ac3e 96fc 0b3e f77d 863d
00000050: 509f bdbd 586b 11be 1abe 6c3e 7430 b03e
00000060: 0b82 a23e 6f38 77bd 7ed9 c3bd e967 00be
00000070: f38f 033e 64cb ab3a de3e da3b df28 f0bd
0.1585957 0.2527701 0.2829157 -0.19417617 -0.18281436 -0.03394324 0.11720042 -0.055814475
-0.14200951 -0.041713145 -0.19184026 0.18704651 -0.05626003 -0.14945938 0.0075273854 -0.09893076
-0.074554384 0.3370637 0.13670573 0.06566995 -0.09258902 -0.14201105 0.23119393 0.34411967
0.3173984 -0.060356554 -0.09562968 -0.12539639 0.12847881 0.001310688 0.0066603264 -0.117265455

hidden_2.weight f4 [32, 32]
00000000: 4f4a d7be 4c1a babb d776 38be 1590 1ebf
00000010: fcf1 03bd c6a1 48bd 0697 d9be adf5 1abe
00000020: 136f 063e e843 8ebe c678 393d e9a3 25be
00000030: c195 97bd 578b 1ebe 4912 c1be 0eb4 053c
00000040: a6bb adbd ece5 f93d 21cc 72bd d654 b5be
00000050: de59 85bd d7ee 0fbf 39db 5ebe 1556 893e
00000060: 0253 07bf 3b4e 5fbe 5d78 a7be 1e76 e5bd
00000070: 3a14 28be 8c84 fc3b 8f58 333e 0dd6 8b3d
00000080: d55d 80be 4c11 86bd 74ee 15be 59c7 53be
00000090: 5ab4 05be 5f50 4c3e 2acc 133e c37e 9ebe
000000a0: 3b1c 683e a687 6fbe 77b5 893e 5fba c73d
000000b0: 75d1 593e 0975 05bf 7d48 903d 0672 a83e
000000c0: 7d98 4fbe f506 cbbe e4d2 d23d 4fed c03c
000000d0: 2d7d 033d 0b16 30be 8a66 e1bd 7874 8c3e
000000e0: 076a 34be 7648 69be 5ef8 1d3e 6728 65be
000000f0: 4bad 68bd d102 59be 30dc 2e3e c600 0d3e
00000100: 9e40 b5bd 9381 72bd 94b5 b1bb e9aa 4ebe
00000110: 473f 5ebd 77bc ef3d 702e bdbd 2722 0ebe
00000120: 2694 863d dec6 72be ddba 0d3e 78a6 cd3b
00000130: 6361 e3bc 18b2 1abf bdd6 833d 4425 a23e
00000140: d07e 71be 84c5 1abe 8124 d8bc 3511 9dbd
00000150: 5ec4 8e3e 1bb5 0abe 4ce2 44be 86cc b03e
00000160: 56d8 16bd 7640 3ebe d9c1 553e 2617 0bbe
00000170: 0ce3 c9bd 5662 56be 6967 073e 7541 e33b
00000180: 50c7 663c 46b2 cbbd 664e c3bd 80f2 313d
00000190: f8b8 1ebe 8ef9 0dbd 325c b7bc 80ce c3bd
000001a0: 6b4f 193d 2357 e33c 7f45 d13d e09c 80bc
000001b0: 1c7f e4bd 422e bf3d 4b62 a63b eb9a a1bd
000001c0: db76 17be 9ba7 003d 5b17 42be 0408 f73c
000001d0: 68ba 8b3d 0379 3dbe 1b5d fbbd 03f6 18be
000001e0: 5f67 033e 3f0d f33d 307a d2bb 07fa 173e
000001f0: 674f b5bd 91ff 58be c388 0f3d 4842 803d
00000200: 7d14 1d3e 00a0 56b8 5e26 dc3d 486b c83d
00000210: 2304 033e 5878 3cbe f6cb 76bc 0668 5abe
00000220: cecf 093e 07e2 43bc 70ba 33be fefb 153d
00000230: 0ab6 3abd 28e7 cbbd 54be b2bd a3c3 163c
00000240: f312 eb3d 52c8 88bd f1dd bd3d 24c3 363c
00000250: 4f8c 86bd 1fba 713c e297 08be 11ea 31be
00000260: 7c83 fabd 5f2a f7bd 19ab f1bd 7331 7abb
00000270: b5bd 08be f36e cebd 6a76 2cbd 8bdd 09bd
00000280: a026 403e ede2 003d 2ce7 fe3c 751e 763e
00000290: fbe4 043d 075c 313d 5299 933b d3a3 093e
000002a0: 0b33 b7bd 2f98 1e3f ba94 083e ab82 bf3e
000002b0: 3eb6 413e 18d2 c03e 973e 693d 5629 bdbd
000002c0: 5f07 623e fecd e83d 5e19 1d3e 3d10 7e3e
000002d0: cf52 3ebd f655 9f3d ca19 933e 3c1a 903d
000002e0: bc92 c73d a9af e83e 45ef 98bd 474e 2e3e
000002f0: 6aa7 533e aeff 2f3e 7c1e bdbd 80d2 f23e
00000300: 2907 233e 5f2e 323c 5d31 9b3c 6d80 9d3c
00000310: 2d49 13be 788d b5bb 5a31 113e 5bb7 5c3e
00000320: a192 5bbe 8752 043f 06a3 023e 7b7a ec3d
00000330: 5460 703e acfe c63e fd48 b23d 43fa 3dbe
00000340: 6c8b 233e 7204 943e 6406 9d3e 8f99 473e
00000350: 83d7 24be 7f09 5e3e 2795 083e 532b 4cbe
00000360: de64 9abc 3d93 513e 4bc1 473e 3ff8 d23d
00000370: 8f0b 523e b215 5e3e c395 043d 603e d83e
00000380: 2e8c 8c3e edac 0e3e 107b 09be 8d82 793e
00000390: 925d b2bb 2afe 433e 8235 803d 8d2c bb3d
000003a0: 5a32 a2bc 807e 233f 9d3a ff3a a6de 7a3e
000003b0: 71fb 8e3d 8a8e 703e b11f 1a3e fa24 eb3d
000003c0: ffc2 053e e321 d13e 7411 9c3d a187 333e
000003d0: 52a8 47be f8df e13c 1b88 43bc dcce 84be
000003e0: c11c ffbd 5d90 ae3e 7e8c 363e d93b a43e
000003f0: a572 823e 03f0 c33b 2f8f 553d 5682 a63e
-0.4204888 -0.0056794044 -0.18014084 -0.619386 -0.032213196 -0.048982404 -0.42498034 -0.1513278
0.13128309 -0.27786183 0.045281194 -0.16175808 -0.0740161 -0.15482841 -0.37709263 0.008160604
-0.08483057 0.12202057 -0.059276704 -0.35416287 -0.065112814 -0.56223816 -0.21763314 0.26823488
-0.52861035 -0.21807186 -0.32709017 -0.1120417 -0.16413966 0.0077062305 0.17514251 0.06827936
-0.25071588 -0.06546268 -0.14641744 -0.20681514 -0.1305708 0.19952534 0.14433351 -0.30956087
0.22667019 -0.2339159 0.2689626 0.09752344 0.21271308 -0.52131706 0.07045076 0.32899493
-0.20273013 -0.39653745 0.102941304 0.023550658 0.0321018 -0.17195909 -0.11005886 0.2743261
-0.17618571 -0.22781548 0.15426776 -0.22378694 -0.05680589 -0.2119248 0.17076182 0.13769826
-0.088502154 -0.059205603 -0.005423257 -0.20182385 -0.054259565 0.11705869 -0.09237373 -0.13880216
0.06571226 -0.23708674 0.13840814 0.006275948 -0.027756399 -0.60428 0.064374425 0.31669056
-0.23583531 -0.15114409 -0.026384594 -0.076692976 0.2788419 -0.13545649 -0.1922695 0.3453104
-0.036827408 -0.18579277 0.20874728 -0.13583049 -0.09857759 -0.2093595 0.13223042 0.0069352933
0.014085606 -0.09946112 -0.09536438 0.043444157 -0.15500247 -0.034661822 -0.02238283 -0.09560871
0.037429255 0.027751511 0.102183335 -0.015699804 -0.11157057 0.09334995 0.0050776354 -0.078908764
-0.14791434 0.03140984 -0.18954222 0.03015519 0.068226635 -0.18503194 -0.12273618 -0.14937596
0.12832402 0.11867761 -0.0064232573 0.14841472 -0.088530354 -0.21191241 0.035042536 0.06262642
0.15339847 -5.1170588e-05 0.107495055 0.09786087 0.12794547 -0.18405282 -0.0150632765 -0.21328744
0.13458177 -0.011955745 -0.17551589 0.03661727 -0.045583762 -0.09956199 -0.087277085 0.009201917
0.11478224 -0.06678833 0.092708476 0.011154924 -0.065697305 0.014753847 -0.13339189 -0.17374445
-0.1223211 -0.120686285 -0.118002124 -0.0038176447 -0.13353617 -0.10079756 -0.042105116 -0.033658545
0.18764734 0.031466413 0.03111609 0.24035056 0.032444935 0.043300655 0.004504361 0.134414
-0.089452825 0.61950964 0.13337985 0.3740438 0.18917176 0.3766029 0.056944456 -0.092364
0.22073124 0.11367415 0.15341708 0.24810882 -0.04646569 0.077800676 0.28730613 0.07036254
0.09744784 0.45446518 -0.07467512 0.17022048 0.20669332 0.17187378 -0.0923433 0.47426224
0.159207 0.010875314 0.018944437 0.019226277 -0.14383383 -0.005540546 0.14178982 0.2155432
-0.21442653 0.51688427 0.12757501 0.11546799 0.23474246 0.38866174 0.08705328 -0.18552499
0.15971154 0.28909642 0.30668938 0.19492172 -0.16097836 0.2168331 0.13338147 -0.19938402
-0.018846925 0.20466323 0.19507329 0.103012554 0.20512222 0.21687964 0.032369386 0.42235088
0.274507 0.13933153 -0.13425851 0.24366207 -0.0054432834 0.19139925 0.06260206 0.09139357
-0.0197994 0.638649 0.0019472424 0.24498996 0.069815524 0.23491874 0.15051152 0.11481662
0.13062666 0.40846166 0.076205164 0.17532207 -0.19497803 0.027572617 -0.011934306 -0.2593907
-0.12456656 0.34094515 0.17827031 0.3207691 0.25478092 0.0059795394 0.052138504 0.32521313

hidden_3.bias f4 [2]
00000000: a73a e3bd 1cb9 313e
-0.110951714 0.1735577

hidden_3.weight f4 [2, 32]
00000000: 4938 8bbe 373e b2be 8b43 93be 32cc 01be
00000010: dfbb 05bd ebef 953e 9f17 353e c21f f53d
00000020: 9364 283e efbc 823e 8ee8 ce3a d6a5 92be
00000030: f44f 3b3e e92a c6bd 27d4 ad3b 2525 1ebe
00000040: 15bc c3b9 2455 77be 122b 893e 6254 943e
00000050: e181 763e 2bda 1d3d 6ebc 70be 9fca 34be
00000060: 8ab7 adbe 8a8a 953d 0fe9 73be 8345 c03d
00000070: ecbe bfbe fabb 8bbe b80f 923e 91da f9be
00000080: 1128 ad3e b5cf 3f3e 77ea 143e eeea d9bb
00000090: 0940 0d3e e878 e7bd 00dc 60be f924 51be
000000a0: a5d4 2abd 3ce8 04be 09c3 393b 73cb f63d
000000b0: a6a3 b8be 2448 b0bd a508 d3bd edcf b03c
000000c0: c074 923c 7ee0 9f3e ae96 09be 3a91 08be
000000d0: c4ff c2bc deb9 453d bd62 4d3e 434b 8d3e
000000e0: eac1 673e 2fa1 99be 5c86 563e 443d 32be
000000f0: cbae bb3e 93b4 003f d24a d6bd 1d6a 0c3f
-0.2719138 -0.3481309 -0.2876247 -0.1267555 -0.03264987 0.29284605 0.17684792 0.11968948
0.16444616 0.2553477 0.001578586 -0.28642148 0.18292218 -0.09676153 0.0053048315 -0.15443857
-0.0003733343 -0.24153572 0.26790673 0.2897063 0.24072982 0.03853814 -0.2350938 -0.17655419
-0.33929092 0.07301815 -0.23819374 0.09388258 -0.3745035 -0.27291852 0.28527617 -0.48799565
0.3381963 0.18731578 0.14542566 -0.0066503203 0.13793959 -0.11302358 -0.21958923 -0.2042426
-0.0417067 -0.12979215 0.002834501 0.120505236 -0.36062354 -0.0860751 -0.10304383 0.021583522
0.017877936 0.3122596 -0.13436386 -0.1333665 -0.0238036 0.04827296 0.20057197 0.27596483
0.22632566 -0.30005786 0.20949692 -0.17406183 0.36656794 0.50275534 -0.104634896 0.54849416
